# parameters
nc: 80  # number of classes
depth_multiple: 1.0  # model depth multiple
width_multiple: 1.0  # layer channel multiple

# anchors
anchors:
  - [ 19,27,  44,40,  38,94 ]  # P3/8
  - [ 96,68,  86,152,  180,137 ]  # P4/16
  - [ 140,301,  303,264,  238,542 ]  # P5/32
  - [ 436,615,  739,380,  925,792 ]  # P6/64

# yolov7 backbone
backbone:
  # [from, number, module, args],
  [[-1, 1, ReOrg, []],  # 0
   [-1, 1, Conv, [80, 3, 1]],  # 1-P1/2
   
   [-1, 1, DownC, [160]],  # 2-P2/4  
   [-1, 1, Conv, [64, 1, 1]],
   [-2, 1, Conv, [64, 1, 1]],
   [-1, 1, Conv, [64, 3, 1]],
   [-1, 1, Conv, [64, 3, 1]],
   [-1, 1, Conv, [64, 3, 1]],
   [-1, 1, Conv, [64, 3, 1]],
   [-1, 1, Conv, [64, 3, 1]],
   [-1, 1, Conv, [64, 3, 1]],
   [[-1, -3, -5, -7, -8], 1, Concat, [1]],
   [-1, 1, Conv, [160, 1, 1]],  # 12
   [-11, 1, Conv, [64, 1, 1]],
   [-12, 1, Conv, [64, 1, 1]],
   [-1, 1, Conv, [64, 3, 1]],
   [-1, 1, Conv, [64, 3, 1]],
   [-1, 1, Conv, [64, 3, 1]],
   [-1, 1, Conv, [64, 3, 1]],
   [-1, 1, Conv, [64, 3, 1]],
   [-1, 1, Conv, [64, 3, 1]],
   [[-1, -3, -5, -7, -8], 1, Concat, [1]],
   [-1, 1, Conv, [160, 1, 1]],  # 22
   [[-1, -11], 1, Shortcut, [1]],  # 23
         
   [-1, 1, DownC, [320]],  # 24-P3/8  
   [-1, 1, Conv, [128, 1, 1]],
   [-2, 1, Conv, [128, 1, 1]],
   [-1, 1, Conv, [128, 3, 1]],
   [-1, 1, Conv, [128, 3, 1]],
   [-1, 1, Conv, [128, 3, 1]],
   [-1, 1, Conv, [128, 3, 1]],
   [-1, 1, Conv, [128, 3, 1]],
   [-1, 1, Conv, [128, 3, 1]],
   [[-1, -3, -5, -7, -8], 1, Concat, [1]],
   [-1, 1, Conv, [320, 1, 1]],  # 34
   [-11, 1, Conv, [128, 1, 1]],
   [-12, 1, Conv, [128, 1, 1]],
   [-1, 1, Conv, [128, 3, 1]],
   [-1, 1, Conv, [128, 3, 1]],
   [-1, 1, Conv, [128, 3, 1]],
   [-1, 1, Conv, [128, 3, 1]],
   [-1, 1, Conv, [128, 3, 1]],
   [-1, 1, Conv, [128, 3, 1]],
   [[-1, -3, -5, -7, -8], 1, Concat, [1]],
   [-1, 1, Conv, [320, 1, 1]],  # 44
   [[-1, -11], 1, Shortcut, [1]],  # 45
         
   [-1, 1, DownC, [640]],  # 46-P4/16  
   [-1, 1, Conv, [256, 1, 1]],
   [-2, 1, Conv, [256, 1, 1]],
   [-1, 1, Conv, [256, 3, 1]],
   [-1, 1, Conv, [256, 3, 1]],
   [-1, 1, Conv, [256, 3, 1]],
   [-1, 1, Conv, [256, 3, 1]],
   [-1, 1, Conv, [256, 3, 1]],
   [-1, 1, Conv, [256, 3, 1]],
   [[-1, -3, -5, -7, -8], 1, Concat, [1]],
   [-1, 1, Conv, [640, 1, 1]],  # 56
   [-11, 1, Conv, [256, 1, 1]],
   [-12, 1, Conv, [256, 1, 1]],
   [-1, 1, Conv, [256, 3, 1]],
   [-1, 1, Conv, [256, 3, 1]],
   [-1, 1, Conv, [256, 3, 1]],
   [-1, 1, Conv, [256, 3, 1]],
   [-1, 1, Conv, [256, 3, 1]],
   [-1, 1, Conv, [256, 3, 1]],
   [[-1, -3, -5, -7, -8], 1, Concat, [1]],
   [-1, 1, Conv, [640, 1, 1]],  # 66
   [[-1, -11], 1, Shortcut, [1]],  # 67
         
   [-1, 1, DownC, [960]],  # 68-P5/32  
   [-1, 1, Conv, [384, 1, 1]],
   [-2, 1, Conv, [384, 1, 1]],
   [-1, 1, Conv, [384, 3, 1]],
   [-1, 1, Conv, [384, 3, 1]],
   [-1, 1, Conv, [384, 3, 1]],
   [-1, 1, Conv, [384, 3, 1]],
   [-1, 1, Conv, [384, 3, 1]],
   [-1, 1, Conv, [384, 3, 1]],
   [[-1, -3, -5, -7, -8], 1, Concat, [1]],
   [-1, 1, Conv, [960, 1, 1]],  # 78
   [-11, 1, Conv, [384, 1, 1]],
   [-12, 1, Conv, [384, 1, 1]],
   [-1, 1, Conv, [384, 3, 1]],
   [-1, 1, Conv, [384, 3, 1]],
   [-1, 1, Conv, [384, 3, 1]],
   [-1, 1, Conv, [384, 3, 1]],
   [-1, 1, Conv, [384, 3, 1]],
   [-1, 1, Conv, [384, 3, 1]],
   [[-1, -3, -5, -7, -8], 1, Concat, [1]],
   [-1, 1, Conv, [960, 1, 1]],  # 88
   [[-1, -11], 1, Shortcut, [1]],  # 89
         
   [-1, 1, DownC, [1280]],  # 90-P6/64  
   [-1, 1, Conv, [512, 1, 1]],
   [-2, 1, Conv, [512, 1, 1]],
   [-1, 1, Conv, [512, 3, 1]],
   [-1, 1, Conv, [512, 3, 1]],
   [-1, 1, Conv, [512, 3, 1]],
   [-1, 1, Conv, [512, 3, 1]],
   [-1, 1, Conv, [512, 3, 1]],
   [-1, 1, Conv, [512, 3, 1]],
   [[-1, -3, -5, -7, -8], 1, Concat, [1]],
   [-1, 1, Conv, [1280, 1, 1]],  # 100 
   [-11, 1, Conv, [512, 1, 1]],
   [-12, 1, Conv, [512, 1, 1]],
   [-1, 1, Conv, [512, 3, 1]],
   [-1, 1, Conv, [512, 3, 1]],
   [-1, 1, Conv, [512, 3, 1]],
   [-1, 1, Conv, [512, 3, 1]],
   [-1, 1, Conv, [512, 3, 1]],
   [-1, 1, Conv, [512, 3, 1]],
   [[-1, -3, -5, -7, -8], 1, Concat, [1]],
   [-1, 1, Conv, [1280, 1, 1]],  # 110
   [[-1, -11], 1, Shortcut, [1]],  # 111 
  ]

# 1 (P1 backbone)   /2
# 23 (P2 backbone)  /4
# 45 (P3 backbone)  /8
# 67 (P4 backbone)  /16
# 89 (P5 backbone)  /32
# 111 (P6 backbone) /64


# yolov7 head
head:
  [
   # bifusion module 1
   [111, 1, SPPCSPC, [640]],  # 112
   #    RB block1, route backbone P5+P4+P6
   #    output/current/shallow/deep layer depth 480/384/192/384
   #    upsample scale factor 2, mode nearest
   [-1, 1, Conv, [384, 1, 1]], #113
   [[89, 67, -1], 1, RBBlockA, [480, '384,1,1;192,1,2', 2, 'nearest']],  # 114
   [-1, 1, Bottleneck, [384, False]],
   [-1, 2, BottleneckCSPB, [192]],  # 116
   
   #    RB block2, route backbone P4+P3+RB Block1
   #    output/current/shallow/deep layer depth 320/256/128/256
   #    upsample scale factor 2, mode nearest
   [-1, 1, Conv, [256, 1, 1]], # 117
   [[67, 45, -1], 1, RBBlockA, [320, '256,1,1;128,1,2', 2, 'nearest']],  # 118
   [-1, 1, Bottleneck, [256, False]],
   [-1, 2, BottleneckCSPB, [128]],  # 120

   #    RB block3, route backbone P3+P2+RB Block2
   #    output/current/shallow/deep layer depth 160/128/64/128
   #    upsample scale factor 2, mode nearest
   [-1, 1, Conv, [128, 1, 1]], # 121
   [[45, 23, -1], 1, RBBlockA, [160, '128,1,1;64,1,2', 2, 'nearest']],  # 122
   [-1, 1, Bottleneck, [128, False]],
   [-1, 2, BottleneckCSPB, [64]],  # 124
   
   #    BFM1
   [[-1,121], 1, BFM, [128, '64,1,1;64,1,1']], 
   [-1, 1, Bottleneck, [128, False]],
   [-1, 2, BottleneckCSPB, [64]],  # 127

   #    BFM2
   [[-1,117], 1, BFM, [256, '128,1,1;128,1,1']], 
   [-1, 1, Bottleneck, [256, False]],
   [-1, 2, BottleneckCSPB, [128]],  # 130

   #    BFM3
   [[-1,113], 1, BFM, [512, '256,1,1;256,1,1']], 
   [-1, 1, Bottleneck, [512, False]],
   [-1, 2, BottleneckCSPB, [256]],  # 133
   # end of bifusion module 1
   
   
   # bifusion module 2
   [89, 1, SPPCSPC, [480]],  # 134
   #    RBblock1, route backbone P4+P3+P5
   #    output/current/shallow/deep layer depth 480/384/192/384
   #    upsample scale factor 2, mode nearest
   [-1, 1, Conv, [384, 1, 2]], #135
   [[67, 45, -1], 1, RBBlockA, [480, '384,1,2;192,1,4', 2, 'nearest']],  # 136
   [-1, 1, Bottleneck, [384, False]], #137
   [-1, 2, BottleneckCSPB, [192]],  # 138
   
   #    RB block2, route backbone P3+P2+RB Block1
   #    output/current/shallow/deep layer depth 320/256/128/256
   #    upsample scale factor 2, mode nearest
   [-1, 1, Conv, [256, 1, 1]], #139
   [[45, 23, -1], 1, RBBlockA, [320, '256,1,2;128,1,4', 2, 'nearest']],  # 140
   [-1, 1, Bottleneck, [256, False]],
   [-1, 2, BottleneckCSPB, [128]],  # 142

   #    RB block3, route backbone P2+P1+RB Block2 
   #    output/current/shallow/deep layer depth 160/128/64/128
   #    upsample scale factor 2, mode nearest
   [-1, 1, Conv, [128, 1, 1]], #143
   [[23, 1, -1], 1, RBBlockA, [160, '128,1,2;64,1,4', 2, 'nearest']],  # 144
   [-1, 1, Bottleneck, [128, False]],
   [-1, 2, BottleneckCSPB, [64]],  # 146

   #    BFM1
   [[-1,143], 1, BFM, [128, '64,1,1;64,1,1']], 
   [-1, 1, Bottleneck, [128, False]],
   [-1, 2, BottleneckCSPB, [64]],  # 149

   #    BFM2
   [[-1,139], 1, BFM, [256, '128,1,1;128,1,1']], 
   [-1, 1, Bottleneck, [256, False]],
   [-1, 2, BottleneckCSPB, [128]],  # 152

   #    BFM3
   [[-1,135], 1, BFM, [512, '256,1,1;256,1,1']], 
   [-1, 1, Bottleneck, [512, False]],
   [-1, 2, BottleneckCSPB, [256]],  # 155
   # end of bifusion module 2
   
   
   #Lead Head
   [[146, 124], 1, Concat, [1]], # 156 multi-pyramid fusion PY3/8
   [-1, 1, BottleneckCSPB, [192]], # 157 bottleneck = PY - 1
   [-1, 1, Conv, [320, 1, 1]],
   [[149, 127], 1, Concat, [1]],  # 159 multi-pyramid fusion PY4/16
   [-1, 1, BottleneckCSPB, [256]], # 160 bottleneck = PY - 1
   [-1, 1, Conv, [640, 1, 1]],
   [[152, 130], 1, Concat, [1]], # 162 multi-pyramid fusion PY5/32
   [-1, 1, BottleneckCSPB, [384]], # 163  bottleneck = PY - 1
   [-1, 1, Conv, [960, 1, 1]],   
   [[155, 133], 1, Concat, [1]], # 165 multi-pyramid PY6/64
   [-1, 1, BottleneckCSPB, [512]], # 166 bottleneck = PY - 1
   [-1, 1, Conv, [1280, 1, 1]],

   #Iux Head
   [[145, 123], 1, Concat, [1]], # 168 multi-pyramid fusion PY3/8
   [-1, 1, BottleneckCSPB, [192]], # 169 bottleneck = PY - 1
   [-1, 1, Conv, [320, 1, 1]],
   [[142, 120], 1, Concat, [1]],  # 171 multi-pyramid fusion PY4/16
   [-1, 1, BottleneckCSPB, [256]], # 172 bottleneck = PY - 1
   [-1, 1, Conv, [640, 1, 1]],
   [[138, 116], 1, Concat, [1]], # 174 multi-pyramid fusion PY5/32
   [-1, 1, BottleneckCSPB, [384]], # 175  bottleneck = PY - 1
   [-1, 1, Conv, [960, 1, 1]],   
   [[135, 113], 1, Concat, [1]], # 177 multi-pyramid PY6/64
   [-1, 1, BottleneckCSPB, [512]], # 178 bottleneck = PY - 1
   [-1, 1, Conv, [1280, 1, 1]],

   [[158,161,164,167,170,173,176,179], 1, IAuxDetect, [nc, anchors]],   # Detect(P3, P4, P5, P6)
  ]
